DPM/HRC/meta_HumanResponseNet.pth (torch, 7687 bytes, 6 tensors)

linear1.weight f4 [32, 5]
00000000: 30ce d73e 0f1e 283d 1892 b63e cbb7 373e
00000010: 65fa 0abd 3cf5 86bd 5f33 dcbe 109d a63d
00000020: 20ab 82bc 8a77 d6be f8da 5ebe 536d dbbe
00000030: f0f7 903d 9c54 3f3e 6cb3 943e 202f 38bc
00000040: 48b4 25be b9f3 cdbe 9288 b1be 8674 1fbe
00000050: bb9a 763e e9ab 823e dff9 bd3e 5f44 4cbe
00000060: a04e 713d 2284 3f3e d1e0 f23d 3eb6 8fbe
00000070: beda c53c 4304 f8bd 0c03 e9bd 1e2e 11be
00000080: 0867 e83d 9072 a83e e663 95be 05b9 a4be
00000090: b476 943d 905e 2dbe 0fbd cfbe ba68 81be
000000a0: 4068 ae3e 29f9 fa3d 41f7 153e d17f b0be
000000b0: 76ec 9ebe fea7 833e 1d63 113d 741b 52be
000000c0: 06fa 88be b51f e13c c72f 43bc 4cdd 843e
000000d0: 9e2f 9b3e 94ef aa3e b207 a9be 8f23 c7be
000000e0: ff0f 983e 50ce 143c d726 c2be cbde 5cbd
000000f0: f979 4d3e a7df 4d3e b23b 933e 6003 f73d
00000100: 1dbd 05bf d37c dcbe 7e26 c5be 8023 8abe
00000110: 326d 2cbe 2277 a1be bb30 98be f203 7ebe
00000120: fe9b e43e c696 79be a4b2 aebd 7e09 56be
00000130: 61c2 c33e a1b1 7bbe 0cc7 4fbe 8692 a5be
00000140: 6586 a1be 4687 4d3e a2b3 29bd 2674 19be
00000150: 58c4 273d e33a 14bd d202 af3e 6747 9e3c
00000160: 8fea bfbd 4dd8 a7be 5b7d d7be 92f7 0dbe
00000170: e613 d53e def8 883e 4e80 26be 5a24 7a3e
00000180: 3b4b d9bd b196 28bd 0d94 edbd 6eef 03be
00000190: dc8c 7b3e 8308 abba defb 72bd 11c6 acbe
000001a0: eeb1 ae3d dcd8 f03d 14c2 cebd 32f4 56bd
000001b0: 5fd0 ddbe 37f8 59be 79f0 8fbc f0e3 873e
000001c0: 1fac e93d 899c c53d 2c87 473d 9ff9 e03c
000001d0: ef07 47bd 8359 a0be f7a3 813e 4e46 f73d
000001e0: abf8 53be 787e a23e e8c1 41bc 1f44 d13d
000001f0: a6fe b7be b53e 6a3e 7d24 ab3d 0020 81be
00000200: df44 af3e 071e 023d aaf8 843e 0583 0fbe
00000210: ef6f 49bc 5e03 843e 9538 9cbe 8399 c6be
00000220: c045 88bb 90a7 53bd 844b d1bd 3e54 be3e
00000230: 74f4 713d a161 d73e 91db bfbe dd2e 9d3e
00000240: 631a 323e 8b5e a13e a565 913e 9b64 2b3e
00000250: 207d 243e 4428 693e 12de 573d 20f6 b2be
00000260: f7b5 8d3e bde4 813e 888c a6bd 7d0c b8be
00000270: ae38 3cbe 781d 83bd 88c7 203d f836 c23d
0.42149496 0.04104429 0.35658336 0.17941205 -0.0339302 -0.065897435 -0.43007943 0.08135426
-0.01595074 -0.41888076 -0.21763217 -0.42856845 0.0707854 0.1868462 0.29043138 -0.011241704
-0.16182053 -0.40225008 -0.34674507 -0.15571794 0.24082462 0.25521782 0.371047 -0.19947957
0.058912873 0.18702748 0.118592866 -0.28068727 0.024152156 -0.12110188 -0.11377534 -0.14177749
0.11347777 0.32899904 -0.2917778 -0.3217241 0.07249203 -0.16930604 -0.40573928 -0.25275213
0.3406391 0.12254555 0.14645101 -0.34472516 -0.3103978 0.25714105 0.035494912 -0.20518285
-0.26753253 0.02748094 -0.0119132465 0.25950086 0.30309767 0.3338591 -0.33013684 -0.38894317
0.29699704 0.009082392 -0.37920257 -0.05392341 0.2006606 0.20104848 0.2875648 0.120611906
-0.5224169 -0.43063983 -0.3850593 -0.2698021 -0.1683853 -0.31536204 -0.29724678 -0.24806193
0.44650263 -0.24373922 -0.08530167 -0.20902058 0.38234237 -0.24579479 -0.20290774 -0.3233835
-0.31547847 0.20071134 -0.041431077 -0.14985713 0.040958732 -0.03618897 0.3418184 0.019321157
-0.093709104 -0.32782212 -0.42087826 -0.13863972 0.41616744 0.2675237 -0.16259882 0.2442793
-0.10610052 -0.041159336 -0.11600504 -0.12884304 0.24565452 -0.0013048801 -0.05932223 -0.33744863
0.08530031 0.11760113 -0.10095611 -0.052478977 -0.43323037 -0.21286093 -0.017570721 0.2654109
0.114097826 0.09648997 0.048712894 0.027462779 -0.04859155 -0.31318292 0.25320408 0.120739564
-0.20700328 0.31737113 -0.011826016 0.10218071 -0.3593647 0.22875483 0.08356569 -0.25219727
0.34232232 0.031766918 0.25970966 -0.14014824 -0.012294753 0.2578382 -0.3051192 -0.38788995
-0.0041587055 -0.051673472 -0.102194816 0.37173647 0.05907102 0.42066672 -0.37472203 0.30699816
0.17392878 0.31517443 0.2839786 0.16737597 0.16063356 0.22769266 0.052702017 -0.34953403
0.2767789 0.25369826 -0.08132273 -0.35947028 -0.18380997 -0.06402105 0.039252788 0.09483141

linear1.bias f4 [32]
00000000: bb41 1cbe cc5a 8ebe 3ee7 8a3e 4ce3 643e
00000010: 29e5 963e 2926 3dbe a8ea a93e 0496 c1bb
00000020: 165a 16be 8dcf 9d3d fc88 973d 376b 9d3d
00000030: 4a65 9a3d 566c a3be e260 9f3e d86e ae3e
00000040: d700 4e3e 9849 96be 0cb4 bdbe e48d 053e
00000050: 03a7 05bd e41d e63e 610d c33e 298c 97bd
00000060: cf33 c73e 8bdb ab3e 6392 bfbe 66f4 8b3e
00000070: c7c0 9fbc 4e3c c13e 6a06 babd 08cc d83e
-0.15259449 -0.27803648 0.2712955 0.22352332 0.2947171 -0.18471588 0.3318684 -0.005907776
-0.14682803 0.07705603 0.073991746 0.07686465 0.075388506 -0.3191859 0.31128603 0.34068942
0.20117508 -0.29353023 -0.37051427 0.13042408 -0.032629978 0.4494468 0.38096145 -0.0739978
0.38906714 0.33565935 -0.37416372 0.273349 -0.019501103 0.3774132 -0.09083255 0.42343163

linear2.weight f4 [32, 32]
00000000: 3aea f93d f483 033d 7991 25be d07e c4bc
00000010: 90da 25be ee83 1e3e 80b1 033d acea f93c
00000020: dcc6 023d 10ba c93d c003 fabd 5ad1 0e3e
00000030: de69 11be 7e65 d03d 1ee9 e93d ea5c 9b3d
00000040: 6e91 a93d 75a8 253e 6345 093e 8d90 d8bc
00000050: a199 b7bc 23cd 97bd c917 7abd 7c96 54be
00000060: 775b 263d e0d4 03be 8a3e aa3d e16f 1f3e
00000070: 5901 1b3e 5e10 af3d f13d a03c 1d83 b3bd
00000080: d974 a0bd 4c79 2c3d 8640 ae3d 9c8d 27bd
00000090: 354c bcbd b61e 9a3d 5a17 8e3d 545a 353d
000000a0: 77db 233e f6f1 e8bd c703 a4bd 48d3 753d
000000b0: f02e 9fbd de2b de3d c08b 153b f71d 333e
000000c0: 8d77 1a3e 3023 f9bd f0a6 a1bc 7d24 e2bd
000000d0: 84b0 b6bd a712 b9bd fd9a c8bd 8549 063e
000000e0: fcef 11bd 434e 86bd e806 e1bd ac36 b2bd
000000f0: af55 00be 9a84 9e3d e002 e63b d939 313e
00000100: 7aae f13d b8bf 493d 5b7a b0bd 2d4b 213e
00000110: 5298 0ebe 613e 34bc 9616 b93d 1bde de3c
00000120: 870d 2c3d e378 0b3e 6e2d d0bd 5dd8 7e3d
00000130: 510b 44bd 5971 343e 800a 133d c58b fd3c
00000140: d553 b03d a385 c53c 8e7f 05be 011f c23c
00000150: 6bc0 d0bd 7e3a e63d aea4 e23d d544 113e
00000160: f37e 2e3d fd45 0bbd 81a5 0fbe 9501 07be
00000170: 3281 21be 1dd0 cc3d 473d 863b 4b39 b6bd
00000180: 69e4 d6bc 8841 ac3c 7207 cd3d 3a6b f33d
00000190: 2a37 9f3d 6bca 0cbe be4d eb3d 5ccb 7a3d
000001a0: 4e68 043e efff c93d 70ce ee3d 6fe9 e13d
000001b0: 823e e2bd 96d0 9c3d 436e 19be d840 06be
000001c0: 19ac 833c 0fe1 93bd 4c06 5e3d 97e2 0ebe
000001d0: 332b 8d3d 541c f7bd 5c4c 35bd 4f9c 56be
000001e0: 4489 af3d fc2a 0bbe a03e ddbd a68c 08be
000001f0: 7bb2 113e 07f8 013b 9c65 9b3d 76d5 d13d
00000200: e94e 18bc b014 393c ffb8 043e 12ed c23d
00000210: fa21 0abe 337c c4bc bedd f83d 1714 32be
00000220: 1169 0c3e 93d2 13be 7b48 1b3e 794e 09be
00000230: e9c6 cc3d 9457 2bbd ad54 0a3e 63d0 0cbe
00000240: c1cd d3bd 604b a63d 07ae e5bd 276c 223e
00000250: 1ccd 23be 856a 2d3e 1fdc f7bd 8aaa debd
00000260: ea94 ad3d a739 fb3d 2ddc 003e a58e 2a3e
00000270: 01d3 003c 1a65 93bd 5ff5 343c 1551 0e3e
00000280: f230 b2bc 72b5 fd3d c83d af3c 2819 7e3d
00000290: 51ea 9d3d 3c9b e83c 357d a3bd 837c ab3d
000002a0: 301f 96bb 8530 da3d 5c36 323d bc7e 093d
000002b0: 25f1 0c3e 62b0 ee3d e8ef 14be 4982 f93d
000002c0: 33dd 413e 677a bc3d 821e db3d 16e8 1a3e
000002d0: fc6d 793c b35f ecbd a84b 7b3d 8a59 243c
000002e0: 189e 823d 62b9 eebd c647 b5bd 43a8 ebbd
000002f0: ce5f 2c3e b723 0ebd b5f9 f43c da5f 64bd
00000300: c9ab 24be c23b f83d 0c0b 60bd 2a9b 2abe
00000310: 6d5b a93d bfa5 28be 732f 92bd 97af 96bd
00000320: 2101 273e cee3 cc3d 42ef ab3d ffc8 8ebc
00000330: 301c 173e 7705 8ebd 6a43 d23d f3dd 5cbd
00000340: 52e2 05bd dd80 8a3d 46c9 e63d 9200 c13d
00000350: 45c1 0dbe 4615 85bd e65f 47bd 5053 813c
00000360: e055 dc3d 70d6 533d e1f7 043b 8c31 b0bd
00000370: 04bc d63d a6a4 d53d 188c 02be 2982 30be
00000380: 776f b13d 5354 083e b019 f83c 7d20 26be
00000390: db78 04bc 320b 0b3e 701e 013d 2150 dd3d
000003a0: 5b29 2abe 6cde 3a3d 0d69 3ebd 8bb6 b7bd
000003b0: f196 ac3d 813c 223e 867d 9d3d dff8 1d3e
000003c0: 2900 6c3d 1e36 6c3a 57a0 0f3e 6989 f83d
000003d0: 84c8 313d 40dd 67bc 20f9 05bd 45ca 1fbe
000003e0: f301 d33d 3d3b 19bd 99be 03be 542a c1bd
000003f0: 8560 083e dbe7 5dbd bdff c73d cf5a 193e
0.12202878 0.032108262 -0.16168775 -0.02398625 -0.16196656 0.15480015 0.0321517 0.030507408
0.03192793 0.09849942 -0.122077465 0.13947049 -0.14200541 0.10175608 0.11421417 0.07586081
0.08279692 0.16177543 0.13405375 -0.026436115 -0.022412123 -0.074121736 -0.06105784 -0.2076053
0.04061457 -0.12874174 0.0831271 0.15570022 0.15137233 0.08548044 0.019560786 -0.08765242
-0.07834787 0.042107865 0.085084006 -0.040906534 -0.09194223 0.07525389 0.06938048 0.044275597
0.16001688 -0.113742754 -0.08008533 0.060015947 -0.077726245 0.10848211 0.0022818893 0.174919
0.15084668 -0.121649146 -0.019732922 -0.11042116 -0.089203864 -0.09036761 -0.09795187 0.13113983
-0.035629258 -0.06557896 -0.109876454 -0.08701834 -0.12532686 0.077401355 0.0070193857 0.17307223
0.11800857 0.049255103 -0.086170875 0.15751334 -0.13925293 -0.0110012 0.09037511 0.027205518
0.04200509 0.13620333 -0.10164915 0.06221806 -0.047862355 0.17621364 0.035898685 0.030950436
0.0860974 0.024111575 -0.1303694 0.023696424 -0.10192951 0.11241625 0.110665664 0.14186414
0.042601537 -0.034002293 -0.14027978 -0.13184197 -0.1577194 0.10000632 0.0040966603 -0.088976465
-0.026231961 0.021027341 0.10011186 0.11885686 0.077741936 -0.13749091 0.114894375 0.061229095
0.12930414 0.098632686 0.116604686 0.11030852 -0.11047079 0.07656972 -0.14983468 -0.13110673
0.016073273 -0.07220661 0.054205224 -0.13953625 0.06893005 -0.1206595 -0.044262275 -0.20958064
0.08571103 -0.13590616 -0.108029604 -0.13334903 0.14228241 0.0019831674 0.0758774 0.102457926
-0.009296157 0.011296436 0.12961195 0.09517874 -0.13489524 -0.023985004 0.12151669 -0.17390476
0.13711955 -0.14435796 0.15164368 -0.13408841 0.099988766 -0.041831568 0.13508864 -0.13751368
-0.10341979 0.081198454 -0.11214834 0.1586157 -0.15996212 0.16935165 -0.12102532 -0.108723715
0.08475669 0.12266856 0.1258399 0.16655977 0.007862807 -0.07197018 0.011044829 0.13898118
-0.021751855 0.123881236 0.021391764 0.06203571 0.07710708 0.028394334 -0.07982866 0.08373358
-0.0045813546 0.106537856 0.043508872 0.03356813 0.13763864 0.11654736 -0.14544642 0.12183053
0.18932037 0.09203034 0.10699178 0.15127596 0.015223976 -0.11541691 0.06135145 0.010031113
0.0637781 -0.11656453 -0.0885158 -0.11506703 0.16833422 -0.03470203 0.029904226 -0.055755474
-0.16081156 0.12120773 -0.054698035 -0.16660753 0.08269391 -0.16469477 -0.071379565 -0.0735771
0.16309024 0.10004388 0.08395244 -0.017429827 0.14756846 -0.06934636 0.102667645 -0.053922605
-0.03268654 0.0676286 0.112688586 0.09423937 -0.13843258 -0.06498198 -0.04867544 0.015786797
0.10758567 0.051718175 0.002028935 -0.086032 0.1048508 0.10431795 -0.12748754 -0.17237152
0.08663838 0.13313417 0.030285686 -0.16223331 -0.008085455 0.1357849 0.031523168 0.10806299
-0.16617338 0.045622274 -0.046486903 -0.08970364 0.08427227 0.15843393 0.07689957 0.15426968
0.05761734 0.00090107496 0.14026009 0.12135584 0.043404117 -0.014151871 -0.032708287 -0.15604503
0.10303106 -0.03741001 -0.12865676 -0.094319016 0.1331807 -0.054176193 0.09765575 0.14976047

linear2.bias f4 [32]
00000000: 5923 32bd 3892 0bbe d8aa 2bbd 3856 0e3e
00000010: 97dd f4bd d02c bfbd 092f 443d 414c b8bd
00000020: f4f4 0b3d a1d3 19bd 385e 50bd 6e57 ef3d
00000030: 3e6e 39be fc8d 06be 3368 ed3d 26d6 363c
00000040: 272a f33c 6889 8fbd 56e5 41bb 66f5 b63d
00000050: ac6d fcbd 9699 a73d 6877 593d e10b d53d
00000060: 776b d3bd 024e 0fbe f318 723d 5ecf dc3c
00000070: 71a4 f03c c234 69bd f8e0 49be 2c5e 29be
-0.04349074 -0.13629997 -0.041910976 0.13900077 -0.119563274 -0.09334719 0.04789642 -0.08998919
0.034169152 -0.03755534 -0.050871104 0.11686598 -0.1810846 -0.131401 0.1159214 0.011159455
0.029683186 -0.0700863 -0.0029586158 0.08933525 -0.12325606 0.08183591 0.05309239 0.10402656
-0.10323232 -0.13994601 0.059105825 0.02695435 0.029375287 -0.05693508 -0.19714725 -0.1653983

linear3.weight f4 [2, 32]
00000000: 2a96 c1bd a6f6 b23d 3e33 07be f46c 5b3d
00000010: f395 9dbc 6182 09be fb00 203e 5d28 803d
00000020: 6d50 89bd c12b 9d3d 45d0 963d 5589 00be
00000030: ff3d 23be 7229 f3bd 91ea 6e3c 5060 d63d
00000040: 3e25 8abd daa6 f7bd f78e 78bd 7c36 f3bd
00000050: 13c3 0c3e da3f a93d 1023 a63c bf05 843c
00000060: 1e4d 75bd d114 943d 6ae3 edbd c55a 2a3e
00000070: 868a 76bd 84e0 ef3d 685c 86bd 577f 553d
00000080: 93b2 103e d8d7 4d3d cc1d d7bd 679f 01bd
00000090: 6f71 083b 49ad 24be 1507 f7bd 5636 183e
000000a0: 467d f93c 9a34 24bd 1a18 e7bd 4a26 7abd
000000b0: fbd7 28be e757 9b3d 1f7d 8e3d 59a5 a83d
000000c0: bd9d 3fbd 7ca7 1a3e 8421 09be 0abf a2bd
000000d0: 6e67 a03d 60f0 bb3b c0b5 fc3b f900 fbbd
000000e0: 6c8a 3cbd 7631 d73d 0cbd b7bc c6c8 023e
000000f0: e423 aebc ffe9 663c 243a c3bd 2f6a 21be
-0.0945247 0.08738451 -0.13203141 0.053570703 -0.01923654 -0.13428642 0.15625374 0.06257699
-0.06704793 0.07674361 0.07363943 -0.12552388 -0.15941618 -0.118731394 0.014582292 0.10467589
-0.06745385 -0.12092371 -0.060683217 -0.118756264 0.1374629 0.08264132 0.020280391 0.016116021
-0.059887998 0.07230533 -0.116156414 0.16636188 -0.0601907 0.11712745 -0.06560594 0.052123394
0.1413062 0.050254673 -0.1050373 -0.03164616 0.0020819565 -0.16081728 -0.12061898 0.14864478
0.030455243 -0.040089227 -0.11283894 -0.06107167 -0.1648864 0.075851254 0.06957459 0.082346626
-0.04678129 0.15102953 -0.13391691 -0.07946594 0.07832228 0.005735442 0.007712096 -0.12256045
-0.046030447 0.10507481 -0.022429012 0.12771901 -0.021257348 0.014093875 -0.09532574 -0.15763162

linear3.bias f4 [2]
00000000: fb68 2ebe a6bf e0bd
-0.17032234 -0.10974054
