DPM/HRC/meta_HumanResponseNet.pth (torch, 7687 bytes, 6 tensors)

linear1.weight f4 [32, 5]
00000000: 92b0 a8bd 2bee 393e 52f9 d1be c0f1 913e
00000010: 2383 49be 3580 0cbe c8ce 1f3e aa71 3abe
00000020: 683b a7bd 1378 343e 3987 183d 0978 2c3e
00000030: 24e9 cc3e 2bdb e53c a72f d2be c08e 9abe
00000040: 288c c4be a006 103d 127d 9c3e e421 203e
00000050: 0356 0d3c d15e 843e 6bf5 fd3d 8258 833e
00000060: 5442 063e 253e 293e ac96 e6bd c3d6 f6bd
00000070: 2fb9 99be cf61 96be 8f48 90be 302c c43c
00000080: 6ab7 973e a02d e9bc 2c96 793e 43f6 5a3e
00000090: 51da d3be 0e11 8e3d 6610 2c3e 370a 3f3e
000000a0: 66f0 6fbe c849 8d3e f476 33bd ff17 443d
000000b0: c56d 34bd 30f8 b0bc 78b9 5fbd e030 b33e
000000c0: 285c 073e 0010 d138 b644 d43e d9ee 0dbe
000000d0: b139 5bbd 407b 263d 60ab d93e 9355 03bd
000000e0: 9f51 0c3e 2345 6dbe bc51 903e 370c 7a3e
000000f0: 53db a9be 9410 9dbe 50c7 003e 88f8 58bd
00000100: 70fc 2ebd 0489 a3bd 8fe5 293d 64f0 dcbe
00000110: 5c11 5fbe af12 743e 7f38 cb3e f7d8 8d3c
00000120: d41b 81bd 0c20 853c afe3 a23e 7023 88bc
00000130: 5ea0 19be a06f 1fbc e099 193e 50f9 c1bd
00000140: 9ffd 733e 7c4c c4bd f43a 93be 79bb 9d3d
00000150: 17d4 a33e 9a6d b73e 4f49 9c3e 200a 36be
00000160: 6b9f 703d 05e1 8fbe bc5d 1a3e 75ce bb3e
00000170: 6f4c e6be d431 71be 5433 813d 0a5c abbe
00000180: f0e6 343d 54e7 bd3e f021 853e 3807 373e
00000190: 9abd 183e 61db c53e 3ed5 bbbe 4490 553c
000001a0: 97e8 e33c 290a 79be a644 9f3e 6b50 b23e
000001b0: 9488 143e 484b 56be 0c22 79be 504c da3e
000001c0: 845d 20be 7d98 da3d b4bb 45be de36 2a3d
000001d0: 3cf3 b13d 7b43 b83e 9238 82be 3615 94be
000001e0: 10a2 df3e 316a 2abe 91c0 b03e 4bfc 92be
000001f0: 5a50 5fbd 5225 593d 0156 803e 6cc3 353e
00000200: d65d 9ebe 6e78 6e3d 384d ccbe 46d4 bbbe
00000210: f8f2 003e de69 bf3e c0b5 a8be 850c 0b3e
00000220: 1ad7 483e a630 64be 7cce 1fbe 6f58 5ebe
00000230: 6eef 853e 4c13 8ebd f497 d7bd 95fc af3d
00000240: c756 313d c017 0ebe c82a c4bd 6863 bfbe
00000250: f891 9abd 10f0 f33d 7205 0ebe d0e6 c63c
00000260: 685f abbe d42b 153d 2c93 a2be 562c 8dbd
00000270: 9c40 de3e 9a64 2ebc 2e52 033b e306 383d
-0.08236803 0.1815726 -0.4101053 0.28504753 -0.19678931 -0.13720782 0.15606225 -0.18207422
-0.08165628 0.1762393 0.037238333 0.16842665 0.40021622 0.028058609 -0.4105198 -0.30187035
-0.3838818 0.035162568 0.3056417 0.15637928 0.008626464 0.2585359 0.124003254 0.25653464
0.1311124 0.16527613 -0.11259207 -0.12052681 -0.30024096 -0.29371497 -0.28180358 0.023946851
0.2963212 -0.028464139 0.24373692 0.21383004 -0.413775 0.06936847 0.1680313 0.1865624
-0.23431548 0.27595353 -0.043814614 0.047874447 -0.044049997 -0.02160272 -0.054620236 0.34998226
0.13218749 9.968877e-05 0.41458672 -0.13860644 -0.053521816 0.040644884 0.4251356 -0.03206403
0.13703011 -0.23170905 0.28187358 0.24418722 -0.33175144 -0.3067671 0.12576032 -0.052971393
-0.042721212 -0.07985118 0.04147869 -0.43152153 -0.21783966 0.23835252 0.3969154 0.017315371
-0.06304136 0.016250633 0.31814334 -0.01661846 -0.15002581 -0.009731203 0.15000105 -0.09471381
0.23827218 -0.09584901 -0.28755915 0.07701773 0.3199775 0.35825807 0.3052468 -0.177773
0.058745783 -0.28101364 0.1507482 0.36680952 -0.4498019 -0.23554164 0.06308618 -0.33468658
0.04416555 0.37090552 0.26002455 0.17873847 0.14916077 0.38643935 -0.36686128 0.013034884
0.027820868 -0.24320282 0.31107062 0.3482698 0.14505225 -0.20927155 -0.24329394 0.42636347
-0.15660673 0.10673616 -0.19309884 0.04155623 0.086889714 0.35988984 -0.25433785 -0.28922433
0.4367833 -0.16642071 0.34521917 -0.2870811 -0.05451999 0.053014107 0.25065616 0.17750329
-0.30930966 0.05822032 -0.39902663 -0.3668539 0.12592685 0.37385458 -0.32951164 0.13578995
0.19613305 -0.22284183 -0.15606111 -0.21713422 0.26159233 -0.06937274 -0.1052703 0.08593098
0.043295648 -0.13876247 -0.095784724 -0.37380528 -0.075473726 0.11911023 -0.13869265 0.024279982
-0.33471227 0.03641875 -0.31752908 -0.06893222 0.43408668 -0.0106441025 0.0020037997 0.044928443

linear1.bias f4 [32]
00000000: 30b5 153c 8b73 8a3e caf4 603e 5cfd a3be
00000010: da10 aa3e 1c1b d6be 4ebb 1ebe bc87 1c3d
00000020: 06ea 433e 609a 88be b2c6 7abc e6cc 53bd
00000030: 68c0 acbe 77f5 953e a20c 583e 74fd 3f3e
00000040: 090f adbe 1097 eebd 21fc b53e 96f4 1abe
00000050: 1877 bb3e b307 1cbd 0deb 813e 8094 233e
00000060: c3da acbe c11f dc3d c836 dd3e fbc5 c7bd
00000070: aaee 7f3c 58aa a13e 948b 363c 2704 f7bd
0.009137437 0.27041277 0.2196838 -0.32029235 0.33215982 -0.41817558 -0.15501139 0.038215384
0.19132242 -0.2668028 -0.015306162 -0.05170908 -0.33740544 0.29288837 0.21098569 0.18749028
-0.33800533 -0.11649907 0.35543922 -0.15132365 0.366143 -0.03809328 0.25374642 0.15974617
-0.33760652 0.10748244 0.43205857 -0.09754559 0.015620867 0.31575274 0.011141676 -0.12061339

linear2.weight f4 [32, 32]
00000000: ca3a 54bd 6031 6ebc 6032 6f3c a0f3 49bd
00000010: efe1 b7bd e23f c93d 7789 05be 7762 b1bd
00000020: 485b 4abd 4925 023e decc 933d 3139 323e
00000030: 01c4 263e a5e5 2c3e bbca f8bd 978c 1a3e
00000040: 2a08 f63d 5021 0fbc d9e4 1bbe e445 85bd
00000050: 7050 cd3c e833 403d 299d 9dbd daf3 853d
00000060: 0a23 1bbe 79e6 28be 004b bb3b 68f1 8e3d
00000070: e980 a1bd 3d3a 04be a7da 343e 6e4b d53d
00000080: 9f5a 13be 7d90 dd3c da0d 8abd e967 9cbd
00000090: 906f 693d 3386 ca3d c856 a7bd 96e1 cabd
000000a0: cb7d 90bd 9ef8 983d 8fc2 3e3d d258 dbbc
000000b0: aca8 483d d185 413e 936f 9f3d e036 d1bc
000000c0: cb9b 23bd 7136 013e d843 08bd 23ae 0cbe
000000d0: 52af 17be 10fc b5bd ea20 023e 7da8 81bd
000000e0: 779d b13c 3534 07be 4639 903d 3a38 9e3d
000000f0: 258c 043e 6c3f 02bd c113 8b3d 0102 2a3e
00000100: 2f00 d03b 2383 12bd a680 103e 7480 e3bd
00000110: 81f1 3cbc d087 4d3d 0662 a33d f53f f93d
00000120: fa8f 183e 04e5 a4bd 06fe 4b3d d63b a0bd
00000130: 0018 8f38 c0fe a83d f83e 35be d172 1d3e
00000140: d33a 333d 16d3 00bb 6362 c6bb ba57 c23d
00000150: 678b a73d 22a7 7ebc 1f6c da3a 2800 62bd
00000160: 1f06 1c3d 0009 0e3e ca02 aebd 99bd 893d
00000170: 4dc1 13be 38d9 09be 5b83 e63d 902b 963d
00000180: 624f b23d d6b5 823d 6e08 b63d 7859 07be
00000190: 1e6f d0bd 3e64 c6bd c2e0 1bbe b85a 2ebd
000001a0: 7d7c a3bd 70e5 f6bc a0de 463d 5135 263e
000001b0: 3f9b 00be b005 44bd 08d8 0dbd e05b 7fbc
000001c0: a8c4 16be 602c 18bd 5f07 2ebe 92f2 0ebe
000001d0: 80b6 7b3d 0fb9 94bd 0017 85bd 19ba 273e
000001e0: 3e36 10be e4df 8c3d 0f7d 1b3e ade1 d5bd
000001f0: 6d09 22be 7d13 183e 0012 083c 1b48 82bd
00000200: 0283 8c3d c0d5 11bc f0f8 9f3c 5c49 60bd
00000210: 662f b23d 1a60 873d 30fb a7bc 44bc 11be
00000220: 3e28 913d 4858 873c d025 a2bc d09c 09be
00000230: 443c 13be 1822 15bd 3c3f 36bd e815 833c
00000240: f0c1 923c ad32 26be 9664 fd3d a952 313e
00000250: 80b9 153c c588 22be 5a42 983d 253f 213e
00000260: e7eb 0b3e 7051 20be 80bc bbba 235e d8bd
00000270: 004c 1bb9 8894 483d d2fd e5bd 0031 11bc
00000280: f0b8 da3d 545d 6b3b 4694 a8bd bc70 003d
00000290: fa7c 023e 6682 1fbe d2ee 75bd e0a7 093e
000002a0: d29b 08bd 2e66 fd3d e1b5 b43b 7744 c13d
000002b0: 60ee 50bc b6f6 533c d13b 0c3e f9cc 173e
000002c0: bb50 223d 3018 c4bd a529 523c 32fd e33d
000002d0: 478a d43b 44bf 21be 79fb 6dbd 7e99 94bd
000002e0: f567 61bd 7d3e 97bd 61e3 0f3e f779 65bd
000002f0: 47fd 00bb 1355 0b3e 0392 183e 0e88 143d
00000300: 0863 3cbd f75a c1bd 8050 c83c 13ca 323e
00000310: 77e1 e6bd b052 4bbd 280e cd3c 36bf c7bd
00000320: ab04 173e b0bf fbbd 2082 8ebb 58f5 39bd
00000330: b09c e0bc 1c7b 5f3d ca8d c1bd 60b1 44bd
00000340: 7a99 e9bd 1730 b6bd 28f5 e53c a83c 21be
00000350: 012c 263e 558a 2b3e b131 a7bd 848c 0b3d
00000360: 0dfb 163e 50f1 c1bd c7e8 14be a633 0ebe
00000370: f27f 9c3d f827 debc db4f 07be a01c 503d
00000380: 22da 13be 4a7b 0ebe 1038 493d 1624 a63d
00000390: b58c dcbd febc f83d 402b 8cbc 4055 2a3b
000003a0: 4856 a6bc f03e 66bc 57a8 0b3e c867 073d
000003b0: f219 bdbd 9ba0 33be 0330 32be 6acc 9e3d
000003c0: a0b9 47bd 3c77 78bd 40c0 efbc 806c 133b
000003d0: 582d a0bd 4ce8 583d 00bc 6c3c f259 9b3d
000003e0: eec7 dc3d 8671 893d 00c5 e53c a7b3 1b3e
000003f0: edf0 28be 0b45 043e f84d 4fbd aadf 9d3d
-0.051813878 -0.014538139 0.014599413 -0.049304605 -0.0897864 0.09826638 -0.1304072 -0.08661359
-0.04940346 0.12709536 0.0721681 0.1740463 0.16285707 0.16884477 -0.12148043 0.15092693
0.12013276 -0.00873597 -0.15224017 -0.06507471 0.02506277 0.0469245 -0.076959915 0.065406516
-0.15150085 -0.16494168 0.005715728 0.06979638 -0.07885916 -0.12912841 0.17661534 0.10414778
-0.14390038 0.027046436 -0.06740923 -0.07637007 0.05699116 0.09888878 -0.08170849 -0.09906308
-0.07055243 0.07469295 0.046572264 -0.026775751 0.048988983 0.18898703 0.07784953 -0.025538862
-0.039943498 0.12618424 -0.033267826 -0.13738303 -0.14812973 -0.08885968 0.12707868 -0.06330965
0.02168153 -0.13203509 0.07042174 0.07725568 0.12944086 -0.031798765 0.06790877 0.16602327
0.006347678 -0.035769593 0.14111575 -0.11108485 -0.011532188 0.05017835 0.07977681 0.12170402
0.14898673 -0.08051494 0.049802803 -0.07823913 6.823242e-05 0.08251715 -0.17699802 0.1537583
0.04375727 -0.0019657067 -0.006054209 0.09489389 0.08180886 -0.015542777 0.0016664303 -0.05517593
0.038091775 0.1387062 -0.08496626 0.06725616 -0.14429207 -0.13461769 0.11255523 0.07332528
0.08706547 0.06382339 0.088883266 -0.13217723 -0.10177444 -0.096870884 -0.15222457 -0.042566985
-0.07982729 -0.030138701 0.048552155 0.16231276 -0.12559222 -0.047856987 -0.03462985 -0.01558587
-0.14723456 -0.037151694 -0.16995 -0.1395972 0.061453342 -0.072618596 -0.064985275 0.16379584
-0.14083192 0.06878641 0.15184425 -0.10443435 -0.15823908 0.14851184 0.008305073 -0.06361409
0.06860925 -0.00890106 0.019527882 -0.05475746 0.08700447 0.06610127 -0.020505518 -0.14231974
0.07087754 0.016521588 -0.019793421 -0.13438725 -0.14378458 -0.036409467 -0.0444939 0.016001657
0.017914742 -0.16230269 0.12372701 0.17316689 0.009138465 -0.15872486 0.074345306 0.15746744
0.13664208 -0.15656066 -0.0014323145 -0.1056483 -0.00014810264 0.048969775 -0.11230053 -0.00886178
0.10679805 0.0035913782 -0.08231406 0.031357512 0.12742987 -0.15577087 -0.06004221 0.13442945
-0.033351727 0.12373005 0.0055148457 0.09436887 -0.0127521455 0.012937238 0.13694693 0.14824285
0.03962777 -0.09574926 0.012827312 0.111322775 0.0064862105 -0.15795618 -0.05810115 -0.07255839
-0.05503078 -0.073849656 0.14051582 -0.056024518 -0.0019682215 0.13606672 0.14899449 0.036262564
-0.04599288 -0.09441178 0.024452448 0.17459898 -0.11273473 -0.049639404 0.025031164 -0.097532675
0.14747874 -0.12292421 -0.004349008 -0.045399994 -0.027418464 0.054560766 -0.09450872 -0.04802072
-0.114062265 -0.08895891 0.028071001 -0.15745795 0.16227724 0.16751988 -0.08163775 0.034069553
0.14744206 -0.09469855 -0.14541923 -0.1388689 0.07641591 -0.027118668 -0.13214056 0.05080855
-0.1443868 -0.13914219 0.04912573 0.081123516 -0.10769025 0.121454224 -0.017110467 0.0025990754
-0.020304814 -0.014053091 0.13638435 0.033057958 -0.09233464 -0.17541735 -0.17401128 0.07753833
-0.04876101 -0.060660586 -0.029266477 0.002249509 -0.07821149 0.05295591 0.01444912 0.07585515
0.10780321 0.06711106 0.028048038 0.1520525 -0.16498156 0.12916963 -0.050611466 0.07708676

linear2.bias f4 [32]
00000000: 7cfa e7bd e392 9ebd 89b3 a9bd 2e05 ad3d
00000010: 2cda 87bd c106 04be 84e7 22be 7074 6a3d
00000020: 0d20 d7bd 58a3 eb3b fcff 27be 5976 243e
00000030: 944c eebd 65ef 0c3e 2912 073e e541 57bc
00000040: 4312 183e a7f2 a5bd 254d f8bd 5d3b e8bc
00000050: c9ea 47be 155f afbd 8e7a 1abe 9d76 c0bd
00000060: d949 c4bd a8dc cabc 29f4 09be 1586 173e
00000070: 1968 fdbd 8af2 173b a659 c1bd a8d8 133d
-0.11327073 -0.0774286 -0.08286197 0.084482536 -0.0663341 -0.12893201 -0.15908629 0.05723995
-0.1050416 0.007191103 -0.16406244 0.16060771 -0.116357 0.13763197 0.13190521 -0.013138269
0.14850716 -0.08102923 -0.12124089 -0.02834862 -0.19523157 -0.08563057 -0.15085813 -0.09397624
-0.09584398 -0.02476342 -0.13472046 0.14797242 -0.12373371 0.0023185336 -0.09440927 0.03609529

linear3.weight f4 [2, 32]
00000000: 11b2 96bd 540c ce3d 5ae1 44bd 9560 25be
00000010: f071 c3bc f3cc fabc b4b4 833d 8e67 85bd
00000020: 9bf2 cc3c a6c3 bbbd a3f5 003e d00c bcbc
00000030: 742b c7bd 4050 2a3b c6b3 6a3c ed9f 33be
00000040: dfc8 e8bd a6ca 94ba 3312 11bd 676e bdbd
00000050: 5985 cbbd af68 123d 5b88 25be c4dd 78bd
00000060: f6af b2bc db34 0e3e fd59 06bd 3d62 303e
00000070: a467 34be 7caa a63d 328c 3abe 5488 4dbd
00000080: 6804 d43c ac6b aabd 0873 46bd 100c cdbc
00000090: 00e4 20b9 53d7 1abe cd36 1ebe 4087 483b
000000a0: 7ae6 80bd 386d 82bc 2665 f0bd 32f7 d23d
000000b0: cdc1 0fbe aa2b af3d ce65 193e a5f1 e53d
000000c0: 651d 22be 4415 c13d 761a 583d 2605 0e3e
000000d0: 7397 6ebb 62a7 05be 11cd 3bbd 0003 0fbe
000000e0: e095 1fbd f987 17be 5413 2ebd 86c3 f43d
000000f0: a903 d13d c9f1 983d cbca 54bd d905 0b3e
-0.07358182 0.10060945 -0.048066474 -0.16150124 -0.02385804 -0.030615306 0.06430951 -0.06513892
0.025018027 -0.09168176 0.12593703 -0.022955328 -0.09725085 0.0025987774 0.014325088 -0.17541476
-0.11366438 -0.0011351898 -0.035417747 -0.09249573 -0.099375434 0.035744365 -0.16165297 -0.060758367
-0.02181242 0.1388735 -0.032800663 0.17224975 -0.17617661 0.08137986 -0.18217543 -0.05017884
0.025881007 -0.08321318 -0.048449546 -0.025030166 -0.00015343726 -0.15121202 -0.15450592 0.0030598193
-0.0629396 -0.01592122 -0.117380425 0.10301055 -0.14038773 0.0855325 0.14980242 0.11227731
-0.15831526 0.09427884 0.05275961 0.13869151 -0.0036406189 -0.13052133 -0.045849863 -0.13965988
-0.03896129 -0.14797963 -0.0424989 0.11951356 0.10205776 0.07467992 -0.05195121 0.1357645

linear3.bias f4 [2]
00000000: eb58 513d dcca 0dbd
0.05111019 -0.03461729
