DPM/HRC/supervised_HumanResponseNet.pth (torch, 7799 bytes, 6 tensors)

linear1.weight f4 [32, 5]
000000 87 5a 1e be e9 72 7a 3d f6 00 f7 3d 5b a6 a8 bd
       -0.15464221 0.061144743 0.1206073 -0.08234855
000010 02 64 e9 3d ec e4 e5 3e b2 17 1d be 6a dd 0d 3e
       0.11396028 0.44901216 -0.1534107 0.13853994
000020 b5 8d 0a 3f f8 7e fc be 88 fe ec 3d 39 23 85 3e
       0.5412248 -0.4931562 0.115719855 0.26003435
000030 7f 1c ad bc 7c 57 e9 3e 3e 61 96 bd 6a 7b ab 3e
       -0.021131752 0.45574558 -0.07342766 0.33492595
000040 5b c6 b0 3b e9 c5 f7 bd d0 cf 1c 3e 97 92 61 3e
       0.0053947396 -0.12098295 0.15313649 0.22028576
000050 d3 5c c3 3e 7c 7f d5 3d 69 b0 25 3d 36 d9 85 3e
       0.38156757 0.10424706 0.04045144 0.2614228
000060 ed 6a 82 3d 8e 4a dc bd 83 18 c6 3d 27 85 72 bc
       0.06368051 -0.10756408 0.09672644 -0.014802254
000070 ea 26 d7 bb 98 92 de bc 80 a0 e7 3c a9 4a b5 be
       -0.006565918 -0.02716951 0.028274775 -0.35408524
000080 6e e8 8b 3e f2 40 d3 be 9c 1c 44 3e 53 7d 95 3e
       0.27325767 -0.41260487 0.19151539 0.29197177
000090 8e fe d1 be 74 2d ae 3e 3c 3f 90 be 72 97 22 bc
       -0.41014522 0.34019053 -0.28173244 -0.009923803
0000a0 92 ac 61 3e 3c f4 20 be 12 0a f9 3e ac 0e 03 be
       0.22038487 -0.15718168 0.48640496 -0.12798566
0000b0 98 3b f9 bd 2f ad 95 be 74 74 54 be 56 71 df 3e
       -0.1216957 -0.2923369 -0.20747548 0.43641156
0000c0 d8 33 ac 3e 20 e0 06 3d 30 9d 16 3d 43 4e c2 be
       0.33633304 0.032928586 0.036771 -0.37950334
0000d0 e8 dc ac 3e 88 51 89 bd bc 01 3f be b6 72 c2 be
       0.33762288 -0.06705004 -0.18653005 -0.37978142
0000e0 16 b8 ac 3e f2 bd 11 bb 47 c6 09 3f 54 03 f7 bd
       0.33734196 -0.002223846 0.5381817 -0.12061182
0000f0 3f fb b4 be 64 e6 0a 3e 45 1a 7d be b5 5d d6 3d
       -0.35347936 0.1356445 -0.24717052 0.10467092
000100 b7 28 6c be c5 02 61 be 8a 43 b5 3e 8e bf 65 bc
       -0.23062406 -0.21973713 0.3540309 -0.014022721
000110 40 c1 97 be bb ac 82 3d bc 17 c7 bd f8 a5 1c bd
       -0.29639626 0.06380602 -0.09721324 -0.038244218
000120 22 66 80 3e 7d 3e b6 be 7e 3a cf 3e 87 33 92 3e
       0.2507792 -0.3559455 0.40474313 0.28554937
000130 24 89 7b 3b d9 0a 7f be 2c 21 8d 3e 1d cc cb be
       0.0038381303 -0.24906482 0.2756437 -0.39804164
000140 74 09 90 3e 91 1e 7d be 7b 5a 33 3e da d8 f9 be
       0.28132212 -0.24718691 0.17514984 -0.48798257
000150 11 83 25 3e 5e c8 96 3e 62 c1 a4 3e 31 4e 2f be
       0.16163279 0.29449743 0.3217879 -0.17119671
000160 f1 f2 a6 3d d5 fb 2a 3e 3f 10 91 3e 55 64 71 3e
       0.08151806 0.16697629 0.28332707 0.2357343
000170 26 80 5e be aa e0 e1 bd 60 2d 6a bd 29 41 64 be
       -0.21728572 -0.110291794 -0.05717218 -0.22290482
000180 25 5a 96 3e 4e 63 17 be 1f f0 c4 bd 5a 54 7f 3e
       0.2936565 -0.14783975 -0.09616112 0.24934521
000190 0c 0e 9a 3e 59 1e 70 3e 6f dd 84 be 3e 07 00 bf
       0.30088842 0.23449077 -0.2595019 -0.5001105
0001a0 22 ee c5 be 5c da 12 3e 37 3b a8 bc e9 c6 9e be
       -0.38658243 0.1434111 -0.020536048 -0.3101113
0001b0 49 05 c9 3e ba 4c cf 3e 75 1b 87 3e 23 af 64 bd
       0.39261845 0.40488225 0.26388136 -0.055831086
0001c0 dc 31 0c 3d 22 4b 94 bd 7b e1 f1 3d 98 3c b1 be
       0.034227237 -0.07240893 0.11810585 -0.34616542
0001d0 d9 7a 96 3e ee bf b3 be a1 eb 8b 3d 5c 68 ca be
       0.293906 -0.35107368 0.06832052 -0.39532745
0001e0 64 7b dd bd f0 2f 31 bd f2 14 53 be 90 fe a2 3e
       -0.108145505 -0.043258607 -0.20613459 0.3183484
0001f0 a0 68 83 3e 67 15 ca be 30 3c 37 bd bc f7 19 3e
       0.2566576 -0.39469454 -0.044735134 0.1503591
000200 b2 e9 dc 3e 74 00 db bd 99 54 89 3e 8e 74 d6 bc
       0.43147045 -0.10693446 0.26822355 -0.026178624
000210 5d 4b fc 3a 99 34 07 3e 35 3d b9 be 37 57 ba 3e
       0.0019248534 0.13203658 -0.3617951 0.36394665
000220 f1 9b e2 3e 70 8a d3 3c 1b 0d 74 3c ce 56 05 3f
       0.442596 0.025822848 0.014895703 0.5208558
000230 d8 e5 05 3e 63 08 39 3e 35 db aa 3e 1e ec a0 bc
       0.1307596 0.18069606 0.33370367 -0.01964384
000240 ee e8 34 3d 1e 94 76 be bb 6e c5 3e 93 49 42 3d
       0.04416745 -0.2407994 0.38561043 0.047433447
000250 66 e9 18 3e e2 1d 67 bd 86 ed 59 3e 2e 94 86 3b
       0.14932784 -0.056424983 0.21282014 0.00410702
000260 d4 6b ec 3e df 37 d9 bd 75 66 39 be f0 cd 2d 3e
       0.46176016 -0.1060636 -0.1810549 0.1697309
000270 e3 51 71 be 14 93 9e be 50 e4 8d 3e 2c c3 1f be
       -0.23566394 -0.30971587 0.2771325 -0.15601796

linear1.bias f4 [32]
000000 04 97 3a be ec a3 70 be 2a 5a 10 bd 02 fe 5a bd
       -0.1822167 -0.23500031 -0.035242237 -0.053464897
000010 8e b9 5b be ab b7 aa bc 70 76 a0 3e 43 ac 44 3e
       -0.21457502 -0.020839533 0.3134036 0.19206338
000020 45 b4 a0 be f6 45 9e be 80 c5 29 3c 37 59 3a 3c
       -0.31387535 -0.3091275 0.010362029 0.01137381
000030 0a 0b 4c bd f9 0e 9f 3e 82 97 c0 3e 53 ec 0f 3c
       -0.049815215 0.3106611 0.3761559 0.008784371
000040 95 9a 68 3e 5b 46 78 3e c6 74 b8 bd 34 b6 b1 3d
       0.22715218 0.24245588 -0.09006648 0.086773306
000050 bb f6 ba 3e d5 5d 89 be a8 a6 32 bd 45 a5 92 be
       0.36516365 -0.268294 -0.043615967 -0.28641716
000060 24 10 b0 be a8 8f 72 3e c1 ea e3 3e 81 6b 02 be
       -0.34387314 0.23687613 0.4451504 -0.12736322
000070 bc 52 fe 3d a3 24 74 3e ef 4d a9 3e f6 8e 9d 3e
       0.12418124 0.23842101 0.3306727 0.30773133

linear2.weight f4 [32, 32]
000000 10 d8 e1 3d 37 fa 09 3e 18 0f 22 be 1f 9b 8a bd
       0.11027539 0.13474356 -0.1582607 -0.06767868
000010 b8 25 c0 3d 42 a4 ea bd 70 2d 0e 3d 1d 42 9f bd
       0.09382194 -0.11457111 0.0347113 -0.07776282
000020 ab db 14 3d 42 a7 b0 3d 0c 96 63 3d 33 46 b7 3d
       0.036342304 0.08625652 0.055563018 0.08948936
000030 7c e6 8a bd b0 44 94 3d 0c 16 6a 3d fa ce 5c bd
       -0.06782243 0.072396636 0.05714993 -0.053908326
000040 0a c8 fe bd 36 4b 25 3e 61 40 54 bd 79 d2 e5 3d
       -0.12440498 0.16141972 -0.05181921 0.11221785
000050 89 77 e6 3d 9c 6b 9c bb a0 b2 12 be 5f 33 c9 bc
       0.11253268 -0.00477357 -0.14325953 -0.024560628
000060 51 04 af bd 74 6a 3c 3d 1c 0d 8c bd 70 69 0b 3e
       -0.08545745 0.04599996 -0.06838438 0.1361444
000070 75 9b 23 be 25 18 8e bd f3 c8 eb 3c b3 9a 48 3c
       -0.15977271 -0.06938199 0.028782343 0.012243914
000080 c5 b6 14 3e 5a c8 64 bd e0 7f 10 be 22 b3 ef 3d
       0.14522846 -0.055855133 -0.1411128 0.11704089
000090 38 54 4a 3d 8e 7d ee 3d 4b 46 d6 bd 4b a4 d4 bd
       0.049396724 0.116450414 -0.10462626 -0.10382899
0000a0 93 3e 92 bd 80 eb 4d 3c 3c 5c 75 3d 17 0c d0 bd
       -0.07140841 0.012568355 0.059902415 -0.10158556
0000b0 60 58 88 bc 28 4a fa bc 2d 2b 25 3e d6 90 82 bd
       -0.016643703 -0.030552939 0.16129752 -0.063752815
0000c0 a5 6b 2f 3e 9a 0c de bd a0 2e 95 bd 06 27 08 be
       0.17130907 -0.10842247 -0.07284284 -0.13296136
0000d0 65 5b 05 3e 5b f7 f8 bd 1c dc 95 3d 22 09 85 bd
       0.13023145 -0.12156554 0.07317373 -0.064958826
0000e0 2f 63 34 3e 98 45 cc 3c 42 33 1d be 90 3b f9 3c
       0.1761596 0.024935529 -0.15351585 0.03042391
0000f0 d0 10 b0 3c 59 15 2f be c8 50 11 3d b5 b5 2c 3e
       0.021492392 -0.17097987 0.03547743 0.1686619
000100 4c 5f 50 3d 00 71 76 ba 54 1a 16 bd 9c 6a 40 3d
       0.050872132 -0.00094009936 -0.036646202 0.04697667
000110 39 4b a1 bd f7 42 32 3e d1 7b 1c 3e e6 21 a9 3d
       -0.07875676 0.17408358 0.15281607 0.08258419
000120 06 da 86 bd 0f f8 29 be 74 6a d0 bd 0f 01 30 3e
       -0.065845534 -0.16598533 -0.10176554 0.17187904
000130 5c 27 26 be ee d6 2c be 70 bf 50 bc 8c 5d 66 3d
       -0.16225952 -0.16878864 -0.012740955 0.056241557
000140 c9 2a 34 be f0 0f 28 be 00 f2 7b 3a 56 e1 72 bd
       -0.17594446 -0.1641233 0.0009610951 -0.05929693
000150 9e 39 fc 3d f8 e3 4f 3d fd 20 1d be 87 27 23 be
       0.12315677 0.050754517 -0.15344615 -0.15933047
000160 76 a1 f8 3d e8 64 00 bd 5d 60 9e bd 0c 12 64 3d
       0.12140171 -0.03134623 -0.077332236 0.055681273
000170 80 4e 0e bd e2 24 ad 3d 6c 9e 37 3d d1 c0 9c bd
       -0.034742832 0.084543005 0.044828817 -0.07653964
000180 96 36 40 be 2d f6 aa 3d 45 89 f4 bd 53 23 f3 bc
       -0.18770823 0.083477356 -0.119402446 -0.02967993
000190 a6 75 56 3c 99 39 d8 bd 1a 36 c5 3d a1 54 0a be
       0.013089573 -0.10557861 0.0962946 -0.13508846
0001a0 13 9d 05 3d a8 e1 9a 3c 00 d6 84 3d d9 79 4d be
       0.0326205 0.01890643 0.0648613 -0.20066012
0001b0 82 07 0d bd af 3c 81 3d 88 c8 e7 bd 70 60 0a 3d
       -0.034430988 0.063104026 -0.11317545 0.033783376
0001c0 cd 2b 25 bc ff fd 0c 3e f0 70 40 bd b8 7a 64 bc
       -0.010081244 0.13768767 -0.046982706 -0.013945274
0001d0 d0 48 b0 bd 2d c7 5b bd 10 2f 2a 3d 21 f0 4c be
       -0.08607638 -0.053656746 0.04154879 -0.20013477
0001e0 97 52 09 3e d3 2b 02 3e 74 f0 84 3d bc 6d f6 3d
       0.13410412 0.1271203 0.06491175 0.12032649
0001f0 d1 74 88 bd f2 54 9c 3c 89 1f 57 ba 42 4b 0d be
       -0.06662906 0.019083474 -0.0008206298 -0.1379824
000200 4a 2a 6c bd 1a 98 5c bd 40 c3 26 bd 38 c6 18 be
       -0.057657517 -0.053855993 -0.04071355 -0.14919364
000210 14 d2 f0 bd 3a 52 c0 bc 38 4c dc bc 6c 94 18 be
       -0.11758819 -0.023476709 -0.026891813 -0.14900368
000220 ff da 35 3d ca 20 c5 3d 61 c1 16 3e 80 73 10 3e
       0.044398304 0.09625395 0.14722206 0.1410656
000230 16 1d 3d be 76 b9 75 bd 02 c0 ab bd f7 ce 20 3d
       -0.18468127 -0.059991322 -0.08386232 0.039259877
000240 6f 8c 5b 3d 0c 3c 34 3d 4d 12 df 3d e5 9e af 3d
       0.053600725 0.044002578 0.108921625 0.085752286
000250 a6 5e bb bd b5 55 07 3e 57 35 fe 3d 65 3c a5 3c
       -0.09148912 0.13216288 0.124125175 0.0201704
000260 be 7d 1d be 2b 0c de bd 94 17 64 3d 99 76 87 3d
       -0.15379998 -0.108421646 0.05568655 0.066144176
000270 22 98 2b 3e d8 5d b8 3d 88 cd 8b 3d 62 25 a3 3c
       0.16757253 0.09002274 0.06826311 0.019915286
000280 32 03 c8 3d cb c9 86 bd 66 cf 8c 3d 0b 77 ab bd
       0.097662345 -0.06581458 0.068754956 -0.08372315
000290 f7 7b 07 bb 7a f6 c6 3d 22 1f a6 3d 70 c6 51 bd
       -0.0020673254 0.097149804 0.08111407 -0.051214635
0002a0 b6 24 1c bc cd fa c8 bd 1e b2 a7 3d 6c cc c1 3d
       -0.009530237 -0.098134615 0.0818827 0.094628185
0002b0 08 61 b9 bc 4c e8 39 be 53 95 01 be f2 90 f1 3d
       -0.022629276 -0.1815502 -0.12654619 0.11795224
0002c0 fc 45 20 bd a3 97 db 3d 2d fe 05 3e 75 66 70 bd
       -0.039129242 0.10722282 0.13085242 -0.05869146
0002d0 43 ab d8 bd 10 72 23 be 47 e1 83 3d 2a f4 8e 3d
       -0.105795406 -0.1596148 0.064394526 0.06980164
0002e0 88 0f fb bc f6 bc 2f be d0 88 ef bd d1 f2 1f bc
       -0.030647054 -0.17161927 -0.11696017 -0.009762482
0002f0 41 70 9e 3d 28 74 83 bd d3 75 f4 bd 9f f8 9d bd
       0.077362545 -0.064186394 -0.11936536 -0.07713436
000300 de 72 38 3e 71 c4 65 3d 47 e7 15 be c7 39 f0 bd
       0.18012568 0.056095544 -0.14639007 -0.1172977
000310 c6 24 20 be 72 38 04 3d e8 02 93 bd 6d 7d 02 bc
       -0.15639028 0.032280393 -0.07178289 -0.007964474
000320 f9 06 08 bd 2d 74 1e be 77 c3 21 be 0f 2e e5 bd
       -0.033209775 -0.15474005 -0.1579722 -0.111904256
000330 c5 2b 33 3c 83 32 1c 3d 26 42 aa bd fe b9 5d bc
       0.010935728 0.03813411 -0.08313398 -0.0135331135
000340 39 53 d1 bc 52 da 20 3e d3 cc b1 bd 20 89 36 3e
       -0.025552379 0.15708283 -0.08681645 0.17825747
000350 86 fb 0e be 57 46 23 be dd 2b 55 3d 96 d0 ab bd
       -0.13963136 -0.15944801 0.052043784 -0.08389394
000360 ca b2 b9 3d 03 4c c8 bd 03 f3 07 3e 0b ef 29 3e
       0.090673044 -0.09780123 0.13276295 0.16595094
000370 a7 a7 0e 3c bc fd 30 3d b7 0a 25 3e c6 51 b0 3d
       0.008706964 0.04321073 0.16117369 0.08609347
000380 06 de 12 be 4d 31 81 bc 50 2f 28 be 8f 3c 00 3e
       -0.14342508 -0.015770579 -0.16424298 0.12523101
000390 ea 6d 26 bd 47 d3 a4 3b ca 6e de bd 69 04 da bd
       -0.040632166 0.005030069 -0.10860975 -0.106453724
0003a0 fb 13 80 3c 97 5a 15 3e d3 fa b5 bd 27 81 0f 3d
       0.015634527 0.14585339 -0.088857315 0.03503528
0003b0 56 e9 76 3e bc 0b 29 3e b4 8f 0d bd a5 9b 20 3e
       0.24112448 0.16508383 -0.034560874 0.15684374
0003c0 99 bd 6c 3d 10 65 1e 3e 83 55 22 bb 92 76 0f be
       0.057798002 0.1546824 -0.0024770207 -0.14010075
0003d0 c1 fb 5a bd 85 0c 22 3d 22 0b b3 3d 83 a1 27 be
       -0.053462747 0.03956272 0.08742358 -0.16370206
0003e0 49 ce 0c 3e 58 63 22 be 22 5b c3 3d a0 95 2b 3e
       0.13750567 -0.15858209 0.095388666 0.16756296
0003f0 65 08 21 3d a1 fb 00 bd fe 33 bc 3d cc 7f 9b bd
       0.039314646 -0.031489972 0.09189604 -0.07592735

linear2.bias f4 [32]
000000 a5 71 10 3e 28 44 99 bc d4 ec 97 bd 61 a2 e6 3d
       0.14105852 -0.018709257 -0.07418218 0.1126144
000010 db 05 a8 bd c4 57 83 be ee 03 18 3e 7f aa 43 bc
       -0.08204242 -0.25652897 0.14845249 -0.011942505
000020 78 36 1c 3e c4 fc 24 3e 1f db 2c 3e 07 37 a9 3d
       0.15255153 0.16112047 0.16880463 0.08262449
000030 8c f1 33 be b5 40 c9 bd 60 30 2e be 5a b2 bc bd
       -0.17572612 -0.09826795 -0.17010641 -0.09213705
000040 14 14 16 be ba a8 02 3e 97 c7 31 bc e0 b3 bb 3d
       -0.14656097 0.12759677 -0.010850809 0.09165168
000050 d9 35 a9 3c ea 66 02 3d 10 42 d1 bc a8 99 3b bd
       0.02065556 0.031836428 -0.025544196 -0.045800835
000060 10 ca 1b 3e dc cf 62 3e 8c 0c 3a be ca 99 8d 3e
       0.152138 0.22149605 -0.18168849 0.27656394
000070 b8 70 f2 bd e7 0f 0a 3e 17 d0 09 be 09 29 7e bd
       -0.11837906 0.13482629 -0.13458286 -0.062050853

linear3.weight f4 [2, 32]
000000 fe 66 a5 bd e9 af e2 bd 1d 29 97 bd 8e e8 48 bb
       -0.08076285 -0.110687084 -0.073808886 -0.0030656192
000010 b6 3e 32 bd f6 94 c7 bd f2 2b fa 3d a9 e5 41 3d
       -0.043516837 -0.09745209 0.12215413 0.04733816
000020 c3 ad 1a be 56 b1 e2 3c 6d 46 17 3d b9 ba 9d bb
       -0.15105347 0.027672451 0.036932398 -0.004813519
000030 14 d3 2f 3d e0 7d 72 bc be 55 9e 3d 2a de fe bd
       0.04292591 -0.014800519 0.07731198 -0.12444718
000040 de 5d 9a bd b5 a8 ff 3d a0 25 e1 bd d7 9f 95 3d
       -0.07537435 0.1248335 -0.109935045 0.07305878
000050 5d f4 13 3e cd 70 1a be 5e 9c 9e bd 2d 7a 1a 3e
       0.14448686 -0.15082093 -0.077446684 0.15085669
000060 c2 2f 46 bc bb 6b 00 3d 8a f5 9e 3c 26 07 8a 3d
       -0.012096347 0.03135274 0.019404192 0.06739645
000070 15 7e 9b bd 22 ac 97 3c 37 2b e3 3d 0b dc 4d bc
       -0.075924076 0.018514697 0.11092227 -0.012564669
000080 08 0b 06 be fc 47 7a 3d c8 d8 38 bd fa e5 13 bc
       -0.13090146 0.061103806 -0.045128614 -0.009026999
000090 b2 3a ee 3d fe ed 73 3d 0a 9f a0 bd 3b 67 58 bd
       0.11632289 0.05955314 -0.07842834 -0.052832823
0000a0 ba a7 66 bc 02 cd a4 bc 98 b8 10 bc 82 58 e3 bd
       -0.014078075 -0.020117287 -0.008833073 -0.11100866
0000b0 99 22 03 3e da c2 bb 3d cc e4 0e 3d 54 f2 23 3d
       0.12806167 0.09168024 0.034886166 0.040026024
0000c0 68 88 a9 3c 93 88 20 3e 33 d3 8c 3d cf 30 20 3d
       0.020694926 0.15677099 0.068762206 0.039109048
0000d0 dc 0b 91 bd c9 f1 a5 3d 1e 5a 29 be 98 5d 64 3d
       -0.0708234 0.081027575 -0.16538283 0.05575332
0000e0 52 41 fe bd b5 0e 30 bd 89 b8 ee 3d 14 af a0 bd
       -0.124148026 -0.042982776 0.11656291 -0.078458935
0000f0 27 ff 28 3e e3 d6 89 bd 0f 71 41 3e 06 2f 95 3d
       0.16503583 -0.067304395 0.18890785 0.0728436

linear3.bias f4 [2]
000000 3d b3 5b 3b 73 92 72 3d
       0.0033523582 0.059221696
